claudia.pt (torch, 17415 bytes, 9 tensors)

fc1.weight f4 [32, 14]
000000 32 e7 62 3c 07 b0 88 3d 0d 6e 8a 3d e0 3d 0e 3f
       0.013849067 0.066741996 0.06759272 0.55563164
000010 43 17 2c be f7 df b1 3e 62 79 8c be 7b 1a 5b 3d
       -0.16805749 0.34741184 -0.27436358 0.05349205
000020 5d 0b a3 bc d4 ee 02 be 5d f8 ed 3d 6f aa 0f be
       -0.01990288 -0.12786418 0.11619637 -0.14029859
000030 30 28 07 3e ab 77 0a 3e 25 cc 7d 3b 59 a7 69 bc
       0.13198924 0.13522212 0.0038726416 -0.01426109
000040 44 c7 aa bc f1 f4 19 3d 40 aa c6 bb 18 79 29 3f
       -0.02084697 0.03758711 -0.006062776 0.662004
000050 fc 04 43 bc fc 40 63 bc 59 e9 de bb 84 d9 02 3d
       -0.011903044 -0.013870474 -0.0068027196 0.03194572
000060 f1 e1 02 3d 28 5d 04 3d df 01 92 3d 5a fe 96 3d
       0.031953756 0.032315403 0.07129263 0.073727325
000070 cb 2d 06 3d ff 8f 10 bc fd 4c 66 bc 60 7f 42 bf
       0.032758515 -0.008823394 -0.014056441 -0.7597561
000080 8a eb 10 3d 02 ec 8f 3d 26 8f af 3e 3e ad 2c bd
       0.035380878 0.07027437 0.342889 -0.042157404
000090 b0 ca d5 3d 70 c2 ae bd 93 d9 23 bd ca 71 97 bd
       0.1043905 -0.0853318 -0.040002417 -0.073947504
0000a0 2f 91 d3 3c 0d 50 19 3e 64 0a 87 bd 04 75 8f be
       0.025826065 0.14971943 -0.06593779 -0.28018963
0000b0 9d 8b 79 3e 1c 1e 98 3e f5 1d 0d be 97 4b b0 be
       0.24369664 0.29710472 -0.13780959 -0.3443267
0000c0 c1 53 31 be e6 1e 70 be 5f ca d6 bd 79 92 8e bd
       -0.17317106 -0.23449287 -0.10487818 -0.06961531
0000d0 59 35 1d 3e 5d 02 04 bd 1e 45 a5 bc b2 47 9f bd
       0.15352382 -0.032228816 -0.02017456 -0.07777347
0000e0 5f ef 1d 3e 05 8a 51 3e a1 39 7a be b3 71 8f be
       0.15423344 0.20462807 -0.24436046 -0.28016433
0000f0 bb a4 62 3d c2 76 51 3e 2c d3 8e 3e 8b 6e fa 3c
       0.05533288 0.20455459 0.27895486 0.03057029
000100 54 ea 10 3e 5f 7c 32 3d 99 b9 01 3e c8 d5 0f 3e
       0.14151889 0.04357564 0.12668456 0.14046395
000110 e2 09 40 be 95 5b 00 bd f4 cc 1d 3e 42 e4 c8 be
       -0.1875377 -0.03133734 0.15410215 -0.39236647
000120 fe 24 04 3f c6 0d 31 be 43 49 0e be 53 86 73 3e
       0.51618946 -0.1729041 -0.13895135 0.2378171
000130 a7 13 7d 3e 01 df 51 3d c1 17 99 be fd 35 a8 bd
       0.24714528 0.051238064 -0.29900935 -0.082134224
000140 f1 61 f6 3d 82 14 79 bd 8b 9b eb 3d af 22 ad 3d
       0.120303996 -0.060810573 0.11504277 0.08453881
000150 98 3c dc bd 0f de b9 bc 6a 15 36 3d 60 f7 87 3e
       -0.10753745 -0.022688894 0.044454016 0.2655592
000160 69 c0 2a bc f2 7f 3a 3f 5d 82 66 bd cf b7 6a bd
       -0.010421851 0.7285148 -0.056276668 -0.0573042
000170 3d 7b 6b bd 6a 64 08 bc b5 81 97 be c7 ee 78 bd
       -0.057490576 -0.008324722 -0.29591146 -0.06077459
000180 18 0c 1e 3e d8 5d e4 bd 01 22 19 be b0 3e c1 3e
       0.15434301 -0.11150712 -0.14954378 0.3774314
000190 b8 2b 76 3c 36 e1 3a 3e 72 bf d9 bd 7d f3 1c bd
       0.015025072 0.18249974 -0.106322184 -0.038318146
0001a0 4a 01 97 3e 57 7b 25 bd 53 27 11 be 27 fd 62 be
       0.2949317 -0.04040083 -0.14175157 -0.22166882
0001b0 59 b2 01 3e 95 d8 28 3e 78 07 27 3e 72 bf 43 be
       0.1266569 0.1648887 0.16311443 -0.19116
0001c0 00 43 89 bc 10 c2 81 bd 95 96 94 3d 91 9c 83 bf
       -0.01675558 -0.063358426 0.07255284 -1.0282155
0001d0 e5 94 8d bc 06 83 0d bc ac 45 e8 3e 74 eb 10 bc
       -0.017282913 -0.008637195 0.45365655 -0.008845199
0001e0 ec d5 0d bb 5f 10 4f 3e 26 48 d2 bd af 15 57 3e
       -0.00216424 0.20221089 -0.102676675 0.21004365
0001f0 8e 7f 34 3e 14 0d 1d be 77 45 93 bc 30 c0 c1 bd
       0.17626783 -0.1533702 -0.01797746 -0.09460485
000200 9d 86 a3 3d 36 d1 67 bf ca 6d 95 bb 83 87 51 bd
       0.0798466 -0.90553606 -0.004560207 -0.051154625
000210 cc e1 f7 3e f1 da 14 bd e4 67 18 bd d2 04 bc bd
       0.48414457 -0.03634161 -0.037208453 -0.09180607
000220 b1 ea 04 bd ff 4b a2 bd c3 7f c6 3d bf 05 2b 3e
       -0.03245038 -0.07924651 0.09692337 0.1670141
000230 54 5e b3 3b 75 dc 42 bc 36 15 39 bc 26 01 98 3f
       0.0054738913 -0.011893381 -0.011296561 1.187535
000240 7c 92 58 3a fb 68 22 3d d5 40 e6 be 59 ce 3a bd
       0.0008261574 0.0396509 -0.44971338 -0.045606945
000250 b1 0b 05 ba 85 7b fa 3d 75 04 2d 3e dd 90 9e 3d
       -0.00050752895 0.12230591 0.16896231 0.07742474
000260 a8 ed c2 bd e8 30 c3 bc bc a7 ff 3b 5f 34 12 3e
       -0.095179856 -0.023827031 0.007801978 0.1427779
000270 3f 1a c6 3d 7b f3 de bd ce 70 c0 be 66 00 f0 3d
       0.09672975 -0.10886284 -0.37586063 0.11718826
000280 ed 67 8f 3e f2 fb 72 3e e8 27 b5 3e a9 1f 85 be
       0.28008977 0.23728922 0.3538201 -0.26000717
000290 bf 0e 0b 3e 01 d0 41 3e ec 98 ab 3c b7 1f ce 3d
       0.13579844 0.18927003 0.020946942 0.10064643
0002a0 49 a1 d9 3d a8 63 8f be 31 ab 1b be 87 14 28 3f
       0.10626466 -0.2800572 -0.15202023 0.6565632
0002b0 e0 44 cb 3c 8e 8f 8a bd e8 88 a7 3d 0d cf a5 be
       0.024813116 -0.06765662 0.0818041 -0.3238453
0002c0 90 71 11 be 91 c6 57 3d a5 c4 28 bc e9 74 9f be
       -0.14203477 0.052679602 -0.01030079 -0.31143883
0002d0 f0 47 71 bd e9 3e ce 3d b9 15 8e bd 55 1b cf 3e
       -0.058906496 0.10070593 -0.06937737 0.4045054
0002e0 92 0e 90 be e7 ce 52 be 44 ca b4 bd 45 92 72 3d
       -0.28136116 -0.2058674 -0.088276416 0.059221525
0002f0 76 fd 04 be c5 55 21 be 39 49 ec bc 88 1f fa 3d
       -0.12987313 -0.15755375 -0.028843509 0.12213045
000300 ef 52 a2 3e 23 3f 2d be 55 ab 55 bd 05 c4 1b 3e
       0.31703898 -0.16918616 -0.052165348 0.15211494
000310 d9 05 e0 bd 6a b2 b8 bd 7e 50 96 bd 9e e7 b1 3e
       -0.10938615 -0.09018405 -0.073395714 0.34747022
000320 89 2c 25 bd f4 45 1c 3f 6f 5f c6 bd e7 06 43 be
       -0.040325675 0.6104424 -0.09686171 -0.19045602
000330 6e 74 21 be f1 f3 8c 3d 30 98 58 3c af 5f 2e 3d
       -0.1576707 0.06882466 0.013219878 0.04257172
000340 75 83 7f be d8 bd 95 bc 61 58 94 3e 33 f8 45 be
       -0.2495249 -0.018279001 0.28973678 -0.19332962
000350 e6 65 2b be 0b e7 0d ba 3c 42 c6 3d 3e 0c c5 3d
       -0.1673809 -0.0005413151 0.09680602 0.09621476
000360 5e 53 4e 3e e5 a7 4c 3e 1a 1f 6a 3e ed 62 81 bd
       0.2014899 0.19985922 0.22863427 -0.06317697
000370 2c a8 6b be de f8 9e be b9 01 5b bd 14 81 fe 3d
       -0.23013371 -0.31049246 -0.05346844 0.124269634
000380 3d bb b8 3d 88 ec 2a 3e 64 2e 4c 3d 9d 31 07 3e
       0.09020088 0.16691792 0.04984893 0.1320252
000390 74 72 e0 bc ce cf 63 bd d9 0e ca bd ff 5b 66 be
       -0.027398326 -0.0556181 -0.09866113 -0.22496031
0003a0 a5 db 60 be cf 80 59 3e fc 9b 96 bd 35 75 16 be
       -0.21958788 0.21240543 -0.073539704 -0.14693148
0003b0 bd ef 25 be 45 af 5c bd 61 ea f8 3c 2e cc 6e 3e
       -0.16204734 -0.053878088 0.030385198 0.23320076
0003c0 11 65 99 be 3e 9d f3 3e dd 96 4e be 40 f2 40 bd
       -0.2995992 0.47580904 -0.20174737 -0.047106028
0003d0 93 70 6f 3e 46 5b 12 be ff 47 ca be fd a7 e7 3d
       0.23382787 -0.1429263 -0.39508054 0.11311338
0003e0 cd 10 33 bc 12 e1 81 be d7 12 bc 3d b7 ca a0 bd
       -0.010929299 -0.25367028 0.09183281 -0.07851165
0003f0 3a 1a c2 3d b9 f7 aa 3e 68 15 94 be fb 3a ed be
       0.094776586 0.33392122 -0.28922582 -0.4633406

fc1.bias f4 [32]
000000 d7 8f 22 3d 07 ec 4f bf 61 90 6e be 33 53 e4 be
       0.039687958 -0.81219524 -0.23297264 -0.44594726
000010 8c 40 b3 bd c3 fd 28 bf d5 ed 21 bf 34 1d b7 be
       -0.08752546 -0.6601221 -0.6325353 -0.35764468
000020 4e a2 00 be 29 2a 1c be d7 48 1d 3e 5d 42 d5 be
       -0.12561914 -0.15250458 0.15359817 -0.41652194
000030 32 e1 9d bd 9a 70 a5 be 9e 18 81 be 5e f9 96 be
       -0.07708968 -0.3231247 -0.25214094 -0.29487127
000040 4e 66 95 be cb a9 a1 be 78 a7 b1 be 7a 45 cc be
       -0.29179615 -0.31574854 -0.3469808 -0.39896756
000050 5e 54 15 bf b5 f2 00 bf 97 78 f8 be 81 e6 11 bf
       -0.5833186 -0.5037034 -0.48529503 -0.56992346
000060 75 7a 99 be c9 e6 1a be 9b c7 92 be b2 67 2b be
       -0.2997624 -0.151271 -0.28667912 -0.16738775
000070 d0 b7 01 bf 4e 51 2c bf 9a 48 76 be 85 78 60 be
       -0.506711 -0.6731156 -0.24051133 -0.21920975

fc2.weight f4 [32, 32]
000000 9d 78 5a be 25 f4 e5 be 03 d0 43 bd 89 65 9b be
       -0.21335073 -0.4491283 -0.047805797 -0.30350903
000010 c7 48 e9 bc 5b 74 2d 3d 39 53 17 be a6 aa 19 bf
       -0.028477086 0.042347293 -0.1477784 -0.60026014
000020 91 f8 96 bc 6b ab 1f 3b ee 8c da be 1d 48 06 bf
       -0.018429073 0.0024363648 -0.42685646 -0.52453786
000030 3b 52 23 be fa e6 cd bc f1 65 5c bc e9 f4 07 3d
       -0.15949337 -0.025134552 -0.013452039 0.03319255
000040 b1 2b 40 3c 80 5d 79 3e c9 18 eb be 33 50 f9 bd
       0.011729167 0.24352074 -0.45917347 -0.121735
000050 de d6 52 bd eb 24 a5 be ba 4f 18 be 13 ff ec 3e
       -0.051474445 -0.3225473 -0.14874163 0.46288356
000060 c6 47 f3 3c ac c2 a2 bc f8 54 57 3d c2 f2 db be
       0.02969731 -0.019868217 0.052571267 -0.42958647
000070 1c 53 c6 3e 9f e5 f4 bd 5d 9d af bd 84 93 4b bc
       0.38735282 -0.11957859 -0.085749365 -0.012425307
000080 12 84 95 3d ff d2 06 be 9c b3 03 bf 1e b2 88 bd
       0.07300581 -0.13166426 -0.5144594 -0.06674598
000090 a3 c9 8c bc 82 2a fa bc 6a 1a 09 3d 0e 41 9b bd
       -0.017185992 -0.030537847 0.033472456 -0.075807676
0000a0 74 88 49 bf ef ca 5c bf 69 0b 0d 3d 8b 59 84 3c
       -0.78723836 -0.8624715 0.03443471 0.016155979
0000b0 4c ee 1c 3e 5a d2 f1 bc aa 23 1a bd 0c ac 81 bd
       0.15325278 -0.029519249 -0.03763167 -0.063316435
0000c0 98 b4 82 3c 26 24 9c 3d 2c 92 b7 bd 7e 0f 0d 3e
       0.015955254 0.07624082 -0.08963427 0.13775441
0000d0 10 a8 ed be 5a fd 7d 3e 11 fb 0b bd 31 97 ae 3e
       -0.46417284 0.24803677 -0.034174982 0.34099725
0000e0 e7 d0 ca 3c cd 5d 26 bf 56 c6 0f 3d dd 98 f7 be
       0.024757816 -0.6498688 0.035101257 -0.48358813
0000f0 b9 a9 21 3e 64 a2 0e be bd f3 13 be 82 3e c1 bb
       0.157874 -0.13929135 -0.14448448 -0.005897344
000100 28 74 ae bd 3b fe 67 bf af 71 8f bc e7 e2 45 bd
       -0.08518249 -0.906223 -0.017510263 -0.048312094
000110 03 77 54 3d 87 fe 19 3e fc b9 41 bf ef 5d 8f 3d
       0.05187131 0.150385 -0.75674415 0.07000338
000120 94 c5 f3 3b c7 26 ab 3b b1 2b c1 bf d9 e1 9a bd
       0.0074393246 0.0052231285 -1.5091459 -0.07562608
000130 4f 7b 2a 3c 55 f2 40 3e 0a 0a 5b 3b 85 4e a6 3d
       0.010405376 0.18842442 0.0033422732 0.08120445
000140 1e fc d2 3d 30 99 87 3e 96 f8 d4 3c a5 19 44 3e
       0.10301994 0.2648406 0.025997441 0.19150408
000150 0a 80 81 3e e2 8a d8 bd fc ac 21 be 6d 34 5f 3d
       0.25293 -0.10573365 -0.15788645 0.054493356
000160 4a 3b 24 be 1d 53 f9 bc 38 0a f9 3d 14 33 e6 3a
       -0.16038242 -0.03043514 0.12160152 0.001756283
000170 e8 cc ce 3d 5d 2c d3 be 28 90 b0 bd f1 15 91 3d
       0.100976765 -0.41244784 -0.086212456 0.07084263
000180 7a 9a b9 3d b6 ed 11 bf 76 40 81 bd 70 ae 40 3e
       0.09062667 -0.57003343 -0.06311123 0.18816543
000190 41 80 d6 be 4b 9c 83 3d e0 a8 9f be df 2d 65 be
       -0.41894725 0.06426295 -0.3118353 -0.2238078
0001a0 00 c4 4a bd e0 32 1a 3e de ac 89 3c 5d 9c c1 be
       -0.049503326 0.1505847 0.016806062 -0.37814608
0001b0 4f 19 a2 3d 3d 9e 84 bf 07 c8 1b 3c a4 78 e9 be
       0.079149835 -1.036079 0.009508139 -0.45599854
0001c0 75 b0 68 bf d4 25 f6 be 6e d7 98 bc 50 97 4b bf
       -0.9089425 -0.48075736 -0.018657412 -0.7952776
0001d0 fe 99 e6 3d 66 33 20 be 1f bb 3e 3e a5 3d 3e bd
       0.112598404 -0.15644607 0.18626069 -0.046445508
0001e0 41 71 a9 be 43 6c 54 bc 57 6f 35 bb f2 4c eb bc
       -0.33094218 -0.012965265 -0.0027684772 -0.028723214
0001f0 2f 0d b4 be cd f9 90 be be 7c a2 3d 8c 0c 77 3d
       -0.35166308 -0.28315583 0.07933949 0.0603147
000200 fb 15 58 bf 01 6e e1 be 21 9f 07 3b a1 5c 04 bf
       -0.8440854 -0.4402924 0.0020694213 -0.5170384
000210 d4 a5 3e 3d 19 7a 9c 3e 96 97 5d bf af 85 26 bd
       0.046544865 0.30561903 -0.86559427 -0.040654834
000220 26 89 ca 3c 57 05 32 3c d8 77 fd be 96 3d 51 3e
       0.0247236 0.010865531 -0.49505496 0.2043365
000230 a9 0e 9c 3e 8e 52 29 3e 9b 34 53 bf 97 dc 80 bc
       0.30479935 0.16535398 -0.82502145 -0.015730185
000240 a1 6e 38 3e 63 59 80 be 3d 4f 79 3d bf 18 92 3d
       0.18010952 -0.25068197 0.060866583 0.07133626
000250 66 60 b6 3c 6c 0a 05 bf dd 35 20 bf f4 3b ff be
       0.022262763 -0.5196903 -0.6258219 -0.49850428
000260 5b e4 6e 3e 6d 7b ec 3c 6f 48 70 be 54 6f d3 3c
       0.23329298 0.028867448 -0.23465131 0.025809921
000270 23 af 87 be 31 fe e6 be 02 4a 5b 3c 17 a5 14 be
       -0.26500806 -0.45115808 0.013384344 -0.14516102
000280 94 37 2b 3d 5e cb 41 3f f9 a9 53 3d 2b ed 72 3d
       0.04180105 0.7570094 0.05167577 0.059308212
000290 9a 7b ac 3d 62 2d c8 bc 8a 53 07 3e f4 01 b4 be
       0.084220126 -0.024435703 0.13215461 -0.3515774
0002a0 9f 7b ad ba 55 a1 aa 3c 6d d5 a3 bc 0d 6d 11 3d
       -0.0013235694 0.020828882 -0.01999923 0.03550439
0002b0 70 d1 16 bd 40 7e 6d bd 6e fb 6a 3d b5 c4 23 be
       -0.03682083 -0.05798173 0.05736869 -0.15993007
0002c0 29 e8 3f bd 20 3c 5d bf f0 70 bf 3d 76 cd 83 bd
       -0.046852265 -0.8641987 0.09347713 -0.06435673
0002d0 fa bb 3f 3c 53 61 03 3e b2 39 34 3d fb dd 50 bd
       0.011702532 0.12830095 0.044000335 -0.050992947
0002e0 86 f8 c4 be 8a 0b d4 3c 4f 0e a7 3c b4 c2 a5 3d
       -0.38470858 0.025884409 0.020392565 0.08093777
0002f0 8e 84 fc bd f9 38 57 3f 24 69 8b 3d 29 dc ca bb
       -0.1232997 0.8407131 0.06807163 -0.006190796
000300 36 fc 8f 3d 1d 7a af bd c8 da d9 be be af 35 bd
       0.07030527 -0.08568213 -0.4254973 -0.044357054
000310 91 cd ee 3c 2a e1 f1 3c ea 34 32 3b 59 b8 a2 bc
       0.029150756 0.029526312 0.0027192184 -0.019863294
000320 f6 29 3c bf d7 fd 6c bf 58 37 d5 3d a8 32 1e bd
       -0.7350153 -0.9257483 0.104109466 -0.03862253
000330 22 42 e0 3d 81 3c 26 be 72 69 84 3b c8 14 55 bd
       0.10950114 -0.16234018 0.0040408904 -0.05202177
000340 44 cb 06 bd f4 f1 22 3e 42 db 4f be d1 eb 59 3e
       -0.032908693 0.1591261 -0.20298484 0.21281363
000350 55 ce ac be 0e b9 31 3e ec 96 28 3d 92 47 45 3e
       -0.3375117 0.17355749 0.041159555 0.19265583
000360 67 b8 8f bd cc 3c bf be 0a 21 7c 3d d9 66 d8 be
       -0.07017594 -0.37351072 0.061554946 -0.42265967
000370 79 11 b4 3d a7 8a d8 bd bf bf c9 be 76 33 74 bd
       0.08792395 -0.10573321 -0.39404103 -0.05961939
000380 92 0d ea bc bc 52 11 bf 7a a8 35 bf e6 7f 98 3d
       -0.028570924 -0.5676687 -0.709602 0.0744627
000390 ec 8e c9 be aa 28 cb be ec 4b 02 be 3e 65 f9 bd
       -0.39366853 -0.39679462 -0.12724274 -0.121775135
0003a0 80 00 50 bf 55 6a 81 bf be 90 a5 bc 0e f3 76 bf
       -0.8125076 -1.0110575 -0.02021062 -0.9646462
0003b0 81 51 9d bc 58 d9 e6 bd 6f dd ae bb 23 38 f0 3c
       -0.019203903 -0.11271924 -0.0053364555 0.029323643
0003c0 35 f9 b4 bc c0 2c 21 3e 83 b8 5f be 29 58 2f 3d
       -0.022091487 0.15739727 -0.2184773 0.042808685
0003d0 55 5b cd be 4f 76 1a 3d c8 3b a1 bc 37 ae 12 3e
       -0.40108743 0.037710484 -0.019681826 0.1432427
0003e0 a8 99 28 be eb 8a 36 bf 25 62 a2 3d a2 55 c0 3c
       -0.16464865 -0.7130572 0.07928876 0.023478333
0003f0 14 c5 52 bd b9 ab b2 be cc 0d 73 be cf 48 8b 3c
       -0.05145748 -0.3489664 -0.23735732 0.017002491

fc2.bias f4 [32]
000000 3e 47 1e 3e 01 ac 99 3d 6b 69 1d 3d 1d a0 2b 3a
       0.15456864 0.0750351 0.038430613 0.0006546991
000010 e1 da 03 be 28 4c 64 be 8d e8 b3 3d e8 c2 04 3e
       -0.12876464 -0.22294676 0.0878459 0.12964976
000020 3d ef 42 bc 45 db fc bd f9 2b 1f be 50 72 a7 3b
       -0.011897859 -0.1234651 -0.15544118 0.0051100627
000030 b8 b5 b8 3d 83 b4 9b 3c 7f d9 b5 3d 17 b0 4e 3e
       0.09019035 0.019006973 0.08879375 0.2018436
000040 a4 0f 44 bd e0 26 b5 3d 13 09 0c 3d 88 e3 6c 3c
       -0.04786648 0.088453054 0.03418834 0.014458545
000050 b9 6d 10 be a8 4b e8 3c be f3 c6 3d 24 15 30 bc
       -0.14104356 0.028356388 0.09714459 -0.010747228
000060 5c 3b 2c bd 5c 16 c1 be 3f 3e 85 bd 08 6f 20 3d
       -0.042048797 -0.3771237 -0.06506013 0.039168388
000070 16 59 2b 3e e1 c8 20 3e 3a 84 3a be 2d 8e 30 3e
       0.16733202 0.15701629 -0.18214503 0.17241736

fc3.weight f4 [32, 32]
000000 8b 4e ba bd 82 ed 47 bd 7a c7 f7 be ec d6 37 be
       -0.09097012 -0.04881049 -0.48394376 -0.1795308
000010 65 1c 00 bf 5d 91 41 3e 63 14 b4 bd 29 56 b4 3c
       -0.50043327 0.18903108 -0.08792951 0.02201374
000020 cd eb 41 bd 74 cc ba be 7d 81 90 3c 50 56 3c 3f
       -0.047344018 -0.3648411 0.01763987 0.735692
000030 14 c2 84 3e 14 cd 83 be 69 98 ee 3c bb 6b 1e bd
       0.2592932 -0.257424 0.02912541 -0.03867696
000040 f9 0b c6 bd 94 f0 4c b9 a8 c1 91 be 75 c6 ac be
       -0.09670252 -0.00019544578 -0.2846806 -0.3374516
000050 56 6e a3 3e 48 6c 4e 3e 40 f5 a3 3c 98 fd 14 be
       0.31920117 0.20158494 0.020014405 -0.14549863
000060 60 39 00 bf 29 f8 f1 3d 4b 2d 04 bf 59 f4 e4 be
       -0.5008755 0.11814911 -0.5163161 -0.44717672
000070 82 a9 aa 3e 37 2a 2e be 3d dc 81 3e 20 b0 1c 3e
       0.3333245 -0.17008291 0.2536334 0.15301561
000080 f8 6d a5 3e 22 83 3e bf 0d 2a d8 3d 37 c2 35 bd
       0.32310462 -0.7441884 0.105548956 -0.04437467
000090 25 ed b6 3e 31 29 f6 3c e4 50 20 bf 4c 7f e8 be
       0.35727802 0.030048938 -0.6262343 -0.4540962
0000a0 49 49 27 3e 21 0c cd 3e 31 75 53 bd 1d fc 4e 3e
       0.1633655 0.40048316 -0.051625434 0.20213361
0000b0 2d 17 c3 bd 3a 57 9f 3d b9 83 2d bf 0f 1f ef 3d
       -0.09525905 0.07780309 -0.6777912 0.11675846
0000c0 02 4e 8c 3e 43 1e ef be bb f1 f6 bd 94 93 c2 3e
       0.27403265 -0.46702775 -0.12057825 0.38003218
0000d0 62 fd ee 3c 76 04 90 bd fc 50 9c be b6 6f 96 be
       0.029173557 -0.07032101 -0.30530536 -0.29382104
0000e0 5d 7d be 3e 5a 02 76 be b2 b3 8f 3e af f2 a1 3e
       0.3720502 -0.24024335 0.28066784 0.31630465
0000f0 89 96 b7 be 40 3d 4c bf 60 0d 19 3d e5 8a 05 3e
       -0.35857037 -0.7978096 0.03736627 0.13041265
000100 2d 23 98 3d 8c f7 1a bf 3e 69 a0 bd db a5 aa be
       0.07428584 -0.60533977 -0.07832573 -0.33329663
000110 90 a0 b6 3d 3a 9a 82 be 6e 07 35 bf 89 bf 86 be
       0.089173436 -0.2550829 -0.7071446 -0.26318005
000120 f0 5d 11 3d 9d 7a ef 3d 7d 6f f5 be f4 b8 4b 3e
       0.035489976 0.116933085 -0.4793662 0.19894773
000130 0b ee 1e be 9c 0e 6f 3e 0e 50 56 bf 15 e6 27 3e
       -0.15520494 0.23345417 -0.83715904 0.16396363
000140 03 b7 98 3e 24 8d 31 bf 8f 04 5c be 52 99 84 3e
       0.29827127 -0.6935599 -0.21486114 0.25898224
000150 08 3e df be a5 7b 63 be a1 31 ea be ca b4 90 be
       -0.43602014 -0.22215135 -0.4574099 -0.2826293
000160 26 9d 6a bd 04 74 af be f5 d0 2b 3d 75 d5 35 3e
       -0.057278775 -0.342682 0.041947324 0.17757209
000170 57 16 30 bf ec 5c 59 bf b0 31 59 be f9 6a d8 3e
       -0.6878409 -0.8490741 -0.2121036 0.42269114
000180 89 2f dc 3d 2c 08 12 3d 9e 97 90 bd d9 a1 8b 3e
       0.10751254 0.035652325 -0.07060169 0.27271917
000190 33 97 56 be 8c ef 98 be 6d 6a 44 3d 92 dc d7 3e
       -0.20956115 -0.2987026 0.047953058 0.4216047
0001a0 43 f1 1c bc fa 9a c7 bd fe da 61 be 31 85 d1 3e
       -0.009579006 -0.09746356 -0.22056195 0.4092193
0001b0 a2 e5 97 3e f8 b4 38 3d cf 89 77 3d 0c e7 3b 3e
       0.29667383 0.04509446 0.06043416 0.18349856
0001c0 05 87 23 3e 33 04 5e 3c f1 b8 ba 3e c3 e6 99 bc
       0.15969475 0.013550806 0.36469224 -0.018786794
0001d0 8d 60 cc 3e d0 e4 0b 3f 44 02 06 3f d9 63 7c bc
       0.39917412 0.54646015 0.5234721 -0.015404665
0001e0 51 53 62 be eb ba f3 3e c1 a1 e6 3c 2a 10 5d bd
       -0.22102095 0.47603545 0.028153302 -0.053970493
0001f0 96 f3 f4 3e 79 69 e4 3d 27 cb dd bd 0a 6a 1e 3e
       0.4784209 0.1115293 -0.10829764 0.15470138
000200 f9 a4 0c 3e 12 df dc 3d 32 48 e5 bd 05 b3 c5 3e
       0.13734807 0.10784735 -0.11195411 0.38613144
000210 c7 d3 b2 bd 79 eb b2 be 2a e8 a5 3c 49 6f 1c 3f
       -0.087317996 -0.34945276 0.020252306 0.6110731
000220 85 2e 75 3b b5 2f be bd cd 4b 99 be bc ee cc 3d
       0.003741176 -0.09286443 -0.29940644 0.100064725
000230 75 63 b6 3e 5f e4 8b 3d bf c9 5c 3d 3e ea 66 3e
       0.35622755 0.06830668 0.053903338 0.22550294
000240 97 12 cf 3d 8b 6b 7b 3d 55 8b 8e 3e b9 6d 3d 3e
       0.101109676 0.061381858 0.27840677 0.18498887
000250 36 6c 4c be d8 1d 27 3e 3f 86 ee 3e 00 c6 05 3e
       -0.19963154 0.16319978 0.46586797 0.13063812
000260 63 c6 0f 3e 36 48 56 3f f4 06 66 3e 6d 3a 42 3e
       0.14040522 0.83703935 0.2246359 0.189676
000270 d1 ea 6d 3e 8c e1 71 3e 9d f3 70 3d e2 be 28 3e
       0.23234107 0.23621196 0.058826078 0.16479066
000280 03 6f 1c be 1e 29 3a be a8 b3 dc be 71 41 13 bd
       -0.15276723 -0.18179747 -0.43105817 -0.03595108
000290 1d 8c da be ed b5 a8 3d 99 dd b3 bd 4d aa 6a 3e
       -0.42685023 0.082378246 -0.08782501 0.22916527
0002a0 46 59 a8 be 1d d2 82 be 8d ce 9f 3d 69 c8 f1 3e
       -0.3288061 -0.2555093 0.07803068 0.47223213
0002b0 87 27 5d bd 16 4a ee be 97 ca d0 bd 2b 00 27 be
       -0.053992774 -0.46540898 -0.10194891 -0.16308658
0002c0 cc 65 b8 3c d9 65 88 bd 0d 8a 32 3e ab 2d b2 be
       0.022509478 -0.06660051 0.17435475 -0.34800467
0002d0 57 cd ba 3e a2 3f db bb fb 22 8c 3e e1 68 89 be
       0.36484787 -0.006690935 0.27370438 -0.2683783
0002e0 d3 b1 0c bf 30 68 5a 3e c5 f5 db be 36 15 c8 be
       -0.5495884 0.21328807 -0.42960945 -0.39078683
0002f0 78 da 36 3e 7f 86 43 3e 9b f2 8e 3e 0d 1b f2 3d
       0.17856777 0.19094275 0.27919468 0.11821566
000300 24 da 6a 3e 47 9c 22 bf 16 ec 1e 3e 15 3f 25 be
       0.22934777 -0.6351971 0.15519747 -0.16137345
000310 9d 3c ac 3e e8 21 8e bd d7 2e fe be 9c c7 95 be
       0.33639994 -0.06940061 -0.4964511 -0.29253852
000320 8c e8 d3 3d 91 fd ca 3e 42 97 3d be 1f 5b 33 3e
       0.10347089 0.3964658 -0.18514732 0.17515229
000330 66 7a 1b be 66 9d 5f 3e d6 6c 39 bf 9d 11 07 3d
       -0.1518341 0.21837386 -0.72431695 0.03297578
000340 d2 fb 8e 3e bb c6 ea be 6c 2e 9c bd 17 df fa 3e
       0.279265 -0.45854744 -0.07626042 0.4899833
000350 35 a2 2e bd 3e b4 4c be 77 f0 e9 be 6e 35 62 bd
       -0.04263516 -0.19990632 -0.45691273 -0.055226736
000360 17 8d 93 3e 46 e1 38 be 16 90 01 3e a9 62 9a 3e
       0.2881858 -0.18054685 0.1265262 0.30153397
000370 41 a4 e5 be 2d 85 58 bf a5 d8 af bd ce 43 bd 3d
       -0.44851878 -0.8457821 -0.085862435 0.09241448
000380 44 a3 e3 3d 23 34 9a bc ea f7 30 be af 01 95 3e
       0.11115125 -0.018823689 -0.17282072 0.29102847
000390 f0 82 a0 bd 10 a7 c1 be e6 95 0b bd 29 90 e7 3e
       -0.07837474 -0.3782277 -0.0340785 0.45227173
0003a0 36 89 1c bb 31 d0 5b bd 82 58 a1 bc 7e 24 4c 3f
       -0.0023885495 -0.053665344 -0.019695524 0.7974318
0003b0 22 86 a3 3e aa 0d 72 bd 6c 22 46 3c 62 c5 36 3e
       0.31938273 -0.059095062 0.012093168 0.17848733
0003c0 99 c7 54 3e bc 9c 14 3e f2 9b 8c 3e d7 12 0a be
       0.20779265 0.14512914 0.27462727 -0.1348375
0003d0 94 01 34 3e 87 59 ef 3e 89 82 9a 3e fa 95 ca b9
       0.17578727 0.4674799 0.30177715 -0.00038640184
0003e0 90 1d de be e1 88 0b 3f 34 4f cc 3c 9b 16 91 be
       -0.4338193 0.54505736 0.02494011 -0.2833756
0003f0 9c 1d 05 3e 7f 50 00 3e 34 14 e6 be 96 4f 69 3e
       0.12999576 0.12530707 -0.4493729 0.22784266

fc3.bias f4 [32]
000000 b4 04 61 bc 8b 49 9d 3b d1 a1 bf 3c b7 d3 8a bd
       -0.0137340315 0.004800027 0.02339259 -0.06778663
000010 da 18 f5 bd 93 fe 74 3d 20 82 b3 3c 2b a9 35 bd
       -0.11967631 0.059813093 0.021912634 -0.044350784
000020 66 89 33 3d b4 e3 f7 3d ad 70 27 3d e4 14 29 be
       0.043832205 0.12103978 0.04087894 -0.16511875
000030 f1 13 99 3d 35 b3 67 bc f6 b7 d6 3d 76 30 10 3d
       0.07474507 -0.014141847 0.104843065 0.035202466
000040 08 57 16 bd 26 bc 3a 3d 61 7e a7 3c 10 2b 29 3d
       -0.036704093 0.04558959 0.020446004 0.041300833
000050 31 40 dd 3b b6 89 13 3d bf 7d dc 3c ad 22 cf 3c
       0.006752037 0.036020003 0.02691543 0.02528509
000060 76 06 92 bc 23 9c 60 bd 0e d4 d3 3c 6c 21 2e bd
       -0.017825346 -0.054836404 0.025857951 -0.042512342
000070 94 de 3b 3d dd 30 69 3d 09 f3 21 be 3e b0 0a 3d
       0.045866564 0.056931365 -0.15815367 0.033859484

fc4.weight f4 [32, 32]
000000 16 01 7b 3e 31 b9 22 bf 25 7e c8 be 59 55 5c bd
       0.24512133 -0.6356383 -0.3915874 -0.05379233
000010 58 20 ad ba ed ab 89 3e 4e 54 06 bf 50 9e c5 3d
       -0.0013208492 0.2688898 -0.5247239 0.09649336
000020 b5 d2 07 bd 48 0f 84 3e d1 29 7b be d2 90 d6 bc
       -0.03315993 0.2579291 -0.2452767 -0.026192103
000030 87 95 f4 bd e1 fc f0 be 3b fd cd 3e af 65 8d be
       -0.119425826 -0.4706793 0.40232262 -0.2761664
000040 bd 29 1e 3d d1 5b b8 be ff 7b cf be 33 a3 5e 3e
       0.038614023 -0.3600755 -0.4052429 0.21741943
000050 88 99 c5 be f0 69 64 be 4f 9d d2 bd 2c eb 39 3e
       -0.38593698 -0.22306037 -0.102839105 0.18156117
000060 37 70 17 bf 87 f7 cb bd 56 27 53 3d 0c 79 ee bd
       -0.591556 -0.099593215 0.051551186 -0.116441816
000070 a8 c4 6e be 2a ec 3c be 9f 39 57 3d 64 39 9c be
       -0.23317206 -0.18449464 0.052545186 -0.30512536
000080 71 27 65 bd c8 8a 0b bf 1c 2d be be fd cc 75 bc
       -0.055945817 -0.5450864 -0.3714379 -0.015002486
000090 e2 1c 80 bd da 4a 0e 3e 96 0f b3 be 86 30 17 3e
       -0.06255509 0.13895741 -0.3497283 0.14764604
0000a0 cc 71 5a 3e b6 dc b4 3c 2d e6 30 be 54 8b c3 bd
       0.21332473 0.0220779 -0.17275305 -0.09548059
0000b0 e7 b3 1e be 0f c8 26 bf 36 70 ae 3e f9 69 94 be
       -0.15498315 -0.65149015 0.34069985 -0.289871
0000c0 08 03 f2 3d 14 0b da be e5 31 bb be c9 cc 96 3d
       0.118169844 -0.42586577 -0.36561504 0.073632784
0000d0 66 df a7 be 0e 5d 04 be 65 f2 5e be 3e d1 58 3d
       -0.32787627 -0.12926123 -0.21772154 0.052933924
0000e0 25 b2 f7 be ff f0 8d bc e7 75 fe bd d7 37 0f b9
       -0.483781 -0.01732683 -0.12424832 -0.00013658345
0000f0 fa 9b 74 bd 50 fb df bd 44 12 81 3e 1c 04 84 be
       -0.059719063 -0.10936606 0.25209248 -0.25784385
000100 23 96 24 3e d9 f4 40 bf da 45 28 bf 73 bd 8b bd
       0.16072898 -0.7537361 -0.65731585 -0.06823244
000110 ff c0 db be db 29 e9 3d 66 90 16 bf 71 20 95 3d
       -0.42920682 0.113849364 -0.58814085 0.07281578
000120 a4 d8 8b bd fa 8f 7e bd 62 0d 0d bf 97 d8 2a be
       -0.0682843 -0.062149025 -0.55098546 -0.16684185
000130 d3 f1 f0 be b2 18 39 bf 98 d5 c2 3e 05 69 24 bf
       -0.47059497 -0.7230331 0.38053584 -0.6422275
000140 a4 90 9a bd 18 8f 53 bf 84 69 9d be f0 a4 62 3e
       -0.07547119 -0.8264022 -0.30744565 0.22133231
000150 2e b8 d4 be 94 90 04 bf 27 f9 98 be f4 7b 8a bd
       -0.41546768 -0.5178311 -0.29877588 -0.067619234
000160 32 bd 12 bf bf 7a 4c 3e aa d6 c8 3a 38 66 5f 3e
       -0.5731994 0.19968699 0.0015322764 0.21816337
000170 e7 e0 17 bf 70 af 35 bf bc 39 29 3e 3b d3 fe be
       -0.5932755 -0.7097082 0.1652593 -0.4977053
000180 0c 88 82 be 01 39 09 be b6 ea cb be b4 8d 0e be
       -0.2549442 -0.13400652 -0.39827508 -0.13921243
000190 3d c9 d6 3e 8d 68 98 be c8 b7 00 bb d6 f5 4f be
       0.41950408 -0.29767266 -0.0019640792 -0.20308623
0001a0 58 e8 ac be b6 0e 18 be 7a dd eb 3d 08 de 55 3d
       -0.33771014 -0.14849362 0.11516853 0.0522137
0001b0 1e 7f 40 be ef b5 0d bd 13 18 5f 3d 67 3c d7 be
       -0.18798491 -0.034597334 0.05446632 -0.4203827
0001c0 8e 45 98 bc 6c 86 07 bd a5 32 3e be 22 b8 62 bd
       -0.018587854 -0.03308718 -0.18574007 -0.055351384
0001d0 e9 a7 97 be ab d7 61 be 49 cf 58 be b9 f3 08 3e
       -0.29620293 -0.22054927 -0.21172823 0.13374223
0001e0 e8 27 a1 be 61 25 b1 bd f0 04 ca bd d0 3f b2 3d
       -0.3147576 -0.086497076 -0.09864223 0.087035775
0001f0 e5 45 e3 3d 5b 7a a7 3b de 6d 0c be 13 79 6e bd
       0.11097316 0.0051110215 -0.13713786 -0.058220934
000200 34 24 34 3e fc ab 28 bf 61 4d e8 be 4a 18 b3 3b
       0.17591935 -0.6588743 -0.45371535 0.005465542
000210 78 96 e0 bd 78 1a 4b 3d bc ce 1a bf d7 97 61 3e
       -0.109662 0.04958579 -0.604717 0.22030579
000220 51 94 48 bd 6a 05 3f 3e 09 47 06 bf b3 5f 39 be
       -0.04896957 0.18654409 -0.5245214 -0.18102913
000230 dc 90 9a be f0 0e 1d bf 31 e3 5f 3e ff 1f 01 bf
       -0.30188644 -0.6135092 0.2186401 -0.5043945
000240 80 0a 45 3e 20 c8 09 bf ed ac f0 be fa 44 1a 3e
       0.19242287 -0.5382099 -0.47006932 0.15065375
000250 db c1 c6 be 3b 00 ce be b8 88 c3 bd 04 19 3a bd
       -0.38819775 -0.4023455 -0.095475614 -0.045434013
000260 f0 07 3b bf 63 ba f3 bc 3a e8 1a 3e e4 69 02 be
       -0.73058987 -0.029751962 0.1512765 -0.12735707
000270 f7 a1 b4 be 4c 91 10 bf 1d b2 7a 3e cb 36 02 bf
       -0.3527982 -0.56471705 0.24482007 -0.5086486
000280 00 91 e8 3d 12 79 32 bf 1d 9c eb be 5e 51 9e bd
       0.113557816 -0.6971599 -0.46017542 -0.07730363
000290 b4 c4 37 3e fa 0d 13 bd ab e6 05 bf 7e b0 16 3e
       0.1794613 -0.035902 -0.52305096 0.14715764
0002a0 b7 c6 2c 3d e9 45 b7 3d d8 e9 2f be 62 31 4f be
       0.042181697 0.08948881 -0.17179048 -0.20233682
0002b0 a6 6f a0 be 67 de 1c bf a6 fb 6a 3e 3b 51 12 bf
       -0.3133518 -0.6127686 0.22947559 -0.571552
0002c0 5e b9 37 3d 5e 12 d9 be 9e 51 a6 be cd a5 44 3e
       0.044854514 -0.42396826 -0.32484144 0.19203873
0002d0 f1 98 8e be 3a 81 85 be 9b e7 66 be 0a f8 d7 3d
       -0.2785106 -0.26075155 -0.22549288 0.105453566
0002e0 4b f0 34 bf ec 85 39 3e 95 ac 5e 3d 5e 52 33 3e
       -0.7067916 0.18117493 0.054363806 0.1751189
0002f0 e5 04 59 be 38 6c 88 be 51 60 12 bd 76 f7 01 bf
       -0.21193273 -0.26645064 -0.035736386 -0.5076822
000300 d0 bc 60 be ca 04 62 3e 5a eb 25 3f 77 97 12 bf
       -0.21947026 0.2207214 0.64812243 -0.57262367
000310 f7 b3 8e be 44 d6 a4 be 93 95 0d 3e 24 04 1b bf
       -0.27871677 -0.32194722 0.1382659 -0.60553193
000320 5c b5 08 bf 6d 88 7d 3e 0c d1 8d 3d 1e fa 1d be
       -0.5340173 0.24759074 0.06924638 -0.15427443
000330 f7 dd 59 3e 8b a8 7e 3d 88 86 17 3e 2e 2c 9d 3e
       0.21276079 0.062172454 0.14797413 0.3069777
000340 23 a1 24 bf 2b 3d 37 3e ca 5b 0e 3f ca f1 26 bb
       -0.64308375 0.17894427 0.5560881 -0.0025473707
000350 4c f6 f7 3e 1b cd 86 3e 92 3c 24 3f 3a f6 c3 be
       0.48430097 0.26328358 0.6415492 -0.38273793
000360 50 c6 91 3e d5 01 e2 be c9 0d 01 be f0 28 f9 be
       0.28471613 -0.44142023 -0.12602915 -0.48664045
000370 ab 73 aa 3d ed ee 12 bc 64 12 fa be 80 a7 fe 3d
       0.08322843 -0.008968097 -0.48842156 0.12434292
000380 0a 51 e3 3b ff 25 16 bf 81 69 e5 be 80 52 7e bc
       0.006937151 -0.5865173 -0.44807056 -0.015522599
000390 98 03 e1 3d 8d ab ca bd 72 03 e7 be 6e ed 50 3e
       0.109870136 -0.09896002 -0.45119816 0.20403072
0003a0 74 69 9f 3c c9 0d 46 3e 88 29 b0 be 5f 2f 00 be
       0.019459464 0.19341196 -0.34406686 -0.1251807
0003b0 2a 3f 63 be fb 18 09 bf 2f 45 9d 3e de 26 17 bf
       -0.22192064 -0.5355374 0.30716845 -0.5904368
0003c0 9f 75 27 3e b6 8f f7 be b6 2f d5 be 3d 01 4d 3e
       0.16353463 -0.4835183 -0.41637963 0.20020004
0003d0 1e c3 80 be 11 ec 68 be 06 bb b3 bd 46 13 77 bc
       -0.25148863 -0.22746302 -0.08775906 -0.015080279
0003e0 cc 53 1c bf 02 9c f7 bd 5d e4 73 3d 9e ef d1 3a
       -0.61065364 -0.12090303 0.059543956 0.0016016846
0003f0 63 85 d9 bd 47 4c cf be 43 99 16 3d 4c f3 db be
       -0.106211446 -0.40487882 0.036767256 -0.42959058

fc4.bias f4 [32]
000000 6f c1 d3 3e ad 60 af 3e df 2f 51 3e c4 17 41 be
       0.41358516 0.34253445 0.20428418 -0.18856722
000010 35 53 2e 3e 4c d7 8a 3e e8 57 ad 3e f4 bd 1f 3e
       0.17023928 0.27117383 0.3385613 0.15599805
000020 80 26 41 3e 17 78 d1 3e b4 00 d2 3e c7 3b 80 3e
       0.18862343 0.40911934 0.4101616 0.25045606
000030 51 d2 07 3e 3f 51 7b 3e c3 3f 58 3e 0c b6 7c 3e
       0.13263823 0.24542712 0.21118073 0.2467882
000040 d2 08 85 3e 72 69 71 3e a0 30 aa 3e ed ab 4d be
       0.25983292 0.2357538 0.33240223 -0.20085116
000050 b0 62 b3 3e 28 26 6e 3e 70 fd 09 be 40 ff da 3e
       0.3503623 0.23256743 -0.13475585 0.42772865
000060 9e 25 b6 3e 54 c5 b9 3e f3 a9 58 3e 22 2f b4 3e
       0.35575575 0.36283362 0.2115858 0.3519221
000070 33 a8 cf 3e 7a 7f f9 bd 22 e6 33 3e 8a e8 32 3e
       0.40558013 -0.12182517 0.17568257 0.17471519

out.weight f4 [1, 32]
000000 a2 92 d4 be fe a0 19 be 4e 80 d8 be c3 de e3 be
       -0.41518122 -0.1500282 -0.4228539 -0.4450589
000010 2f 6e 40 be fc bd 57 be db 5c e2 3e 57 f1 19 be
       -0.18792032 -0.21068567 0.44211468 -0.1503347
000020 d8 df d1 3e c9 c6 ba be 14 8a e8 3e 55 35 95 be
       0.40991092 -0.36479786 0.45417845 -0.29142252
000030 06 0c 16 3f 25 5e 56 be 66 f5 ff 3e 9d 66 f6 3e
       0.58612096 -0.20934351 0.49991912 0.48125163
000040 df 53 21 bf 05 b3 e0 be 97 4e ad be 07 a3 60 be
       -0.630186 -0.4388658 -0.33849022 -0.2193719
000050 27 f1 e8 3e e8 c7 9b be b0 e3 c7 be df 81 ba be
       0.45496485 -0.30425954 -0.390409 -0.3642721
000060 45 a2 58 be a4 66 c4 be df d9 df 3e 2f 60 c3 3e
       -0.21155651 -0.3835956 0.4372091 0.3815932
000070 0b f7 aa be 91 66 af be a9 21 de 3e 9d a3 f1 3e
       -0.33391604 -0.3425794 0.43385056 0.4719514
